ANN/IrisDatasetModel.pt (torch_old, 1616 bytes, 6 tensors)

fc1.weight f4 [8, 4]
0.38674396 -0.20514503 -0.15601723 0.21312673 -0.3870318 0.07934177 0.14807653 -0.4770878
0.019974101 -0.23801173 0.38138577 -0.04756685 0.3348556 0.27703446 0.10140141 -0.5661733
0.43422958 -0.510966 0.33118266 0.34309024 0.004026258 0.45712245 -0.18407148 -0.36126187
0.16464484 -0.111353755 -0.42134798 -0.3553493 -0.31912696 0.14395738 -0.3496034 0.22803837
00000000: 4e03 c63e 8a11 52be fbc2 1fbe e53d 5a3e
00000010: 0829 c6be f07d a23d 60a1 173e da44 f4be
00000020: baa0 a33c 59b9 73be ff44 c33e 75d5 42bd
00000030: 3172 ab3e 76d7 8d3e 8bab cf3d bcf0 10bf
00000040: 5753 de3e abce 02bf c690 a93e 86a9 af3e
00000050: b3ee 833b f40b ea3e 3c7d 3cbe 51f7 b8be
00000060: a898 283e 700d e4bd ecba d7be 58f0 b5be
00000070: 9c64 a3be 9069 133e 38ff b2be e482 693e

fc1.bias f4 [8]
0.41533145 -0.20286602 0.22084725 0.0040809046 0.23302513 -0.044830263 -0.31223232 0.3780589
00000000: 53a6 d43e 1cbc 4fbe c825 623e 1cb9 853b
00000010: 249e 6e3e f09f 37bd eadc 9fbe f090 c13e

fc2.weight f4 [9, 8]
-0.2174119 0.08211541 0.20148703 -0.2559198 -0.3213966 0.1975675 -0.3494075 -0.263886
0.11700757 -0.11852983 0.3673856 -0.13132761 0.16998652 -0.29373917 0.06991243 -0.32654905
-0.29439548 -0.2716259 0.015992444 -0.08872671 0.32806402 -0.0031497562 0.30476496 -0.21013083
0.007409933 -0.060686797 0.2580798 0.03194795 -0.048560213 -0.18749629 -0.30017546 -0.11276427
0.22248922 -0.19118746 -0.048039243 -0.3238133 0.43590233 0.2162355 -0.20340693 0.011390448
-0.019687474 0.06268561 -0.22976097 -0.22057456 -0.051930577 -0.2718181 0.03937459 -0.1807519
-0.2417121 -0.017445713 -0.059693016 0.10935703 0.3810001 -0.31440243 -0.11047746 -0.062431544
-0.34455273 -0.34292972 0.14099798 -0.022949457 -0.18073732 0.33784905 -0.35234165 0.31245807
-0.337548 -0.20817648 0.19352755 -0.08948955 -0.10615282 -0.24129227 0.10800251 0.2850211
00000000: 3aa1 5ebe 202c a83d 9e52 4e3e ec07 83be
00000010: 188e a4be 224f 4a3e 8ae5 b2be 111c 87be
00000020: aaa1 ef3d c4bf f2bd f719 bc3e bf7a 06be
00000030: f210 2e3e fb64 96be 402e 8f3d 7031 a7be
00000040: 01bb 96be 8d12 8bbe 9602 833c 59b6 b5bd
00000050: 02f8 a73e 246c 4ebb 270a 9c3e 892c 57be
00000060: 06cf f23b b892 78bd 0923 843e dbdb 023d
00000070: 13e7 46bd 07ff 3fbe 99b0 99be f4f0 e6bd
00000080: 37d4 633e a5c6 43be ccc4 44bd dbca a5be
00000090: 972e df3e d76c 5d3e e849 50be 009f 3a3c
000000a0: a047 a1bc 5061 803d 7646 6bbe 4cde 61be
000000b0: 28b5 54bd be2b 8bbe 4047 213d 0717 39be
000000c0: 6083 77be 50ea 8ebc aa80 74bd 94f6 df3d
000000d0: 7212 c33e 5bf9 a0be 0242 e2bd 38b8 7fbd
000000e0: 3769 b0be 7c94 afbe c661 103e 8000 bcbc
000000f0: 3413 39be 8dfa ac3e 2066 b4be 81fa 9f3e
00000100: 17d3 acbe 372c 55be 162c 463e 4c46 b7bd
00000110: a666 d9bd 5215 77be 6c30 dd3d 49ee 913e

fc2.bias f4 [9]
0.115219146 0.29857266 -0.30567184 -0.37881935 -0.23606367 -0.035856277 -0.00042108606 0.0072007775
0.042100698
00000000: 04f8 eb3d 84de 983e 0581 9cbe 9cf4 c1be
00000010: adba 71be 08de 12bd 37c5 dcb9 80f4 eb3b
00000020: c871 2c3d

out.weight f4 [3, 9]
-0.21553898 -0.17522547 -0.014195123 0.04285161 -0.34922314 0.22666267 -0.12783544 0.12403688
0.30118123 0.17607084 0.2064918 -0.2261652 -0.20002174 0.00881838 0.27184823 0.25732788
0.027234674 0.27597812 -0.11729495 -0.04138896 -0.07784858 -0.12080589 0.10999527 -0.32192153
0.3431297 -0.33308148 -0.15834916
00000000: 40b6 5cbe 4e6e 33be a992 68bc 2b85 2f3d
00000010: 60cd b2be 421a 683e 4be7 02be 0c07 fe3d
00000020: 6d34 9a3e ea4b 343e 9672 533e da97 67be
00000030: 80d2 4cbe f77a 103c b12f 8b3e 7bc0 833e
00000040: 401b df3c 014d 8d3e 5638 f0bd 7887 29bd
00000050: 146f 9fbd 1469 f7bd 3345 e13d e6d2 a4be
00000060: b2ae af3e a889 aabe 4826 22be

out.bias f4 [3]
0.20741718 -0.12163368 -0.16953588
00000000: 2b65 543e 141b f9bd d09a 2dbe
