ANN/TaxiFareClssModel.pt (torch_old, 110038 bytes, 21 tensors)

embeds.0.weight f4 [24, 12]
00000000: 46f3 ed3e ff44 353d 1a44 ecbe 8512 393f
00000010: add3 213f b3c4 d9be a237 af3f a8df 783c
00000020: 08cc 99bf 2ad1 983f 592f c23e 6a4a bfbe
00000030: 8465 43bd 1402 babf 30cb 153e 0595 013f
00000040: 380b cabe e6bc c3bf 0221 9b3f 87f9 35bf
00000050: da73 213e d0a6 9a3f e642 16bf 80c8 123f
00000060: a464 973e 3641 a6bf fa96 e1be 5b2e 9e3e
00000070: a37b 86be 0c30 45bf 50a6 acbf aac3 91bf
00000080: ed5d 6abf ec02 cd3e 000d 79bf 5c1a 403f
00000090: 7f3e a6bf 0ee0 8dbe 3e7e 94bf dab3 b03f
000000a0: 0c7a afbe cde1 653e bdd7 fb3e c713 483f
000000b0: 7ece 063f 08d3 153e 4394 033e 950a 23be
000000c0: 1809 84bf 2b93 70bf d6c2 b13f 09cf acbf
000000d0: 3ec0 75be 62c4 c7bf 356e c9be 02e0 9b3f
000000e0: 9160 393e 0941 2bbf 8284 5a3f bf3c 0c3f
000000f0: 5bd7 7e3e f33b 9abe e536 333f bdec 27c0
00000100: ed0d 35be 0f7f 15c0 84a9 e3bf b7f4 d83d
00000110: 501c 8cbf a233 3b3f 6ed0 783e 1550 583f
00000120: 4cf8 743e b47b 8d3f 97f3 1a3f df86 1dbf
00000130: 5d4f 0dbf 484b 09bf 5088 0f3f c737 e8bd
00000140: 3cec c43f 79fd a5bf 02f5 11be 7a5d 983f
00000150: 2310 e03f af46 39be 459a 493d a033 92bf
00000160: 17a0 38bf 9e54 5b3d 355d 203f 7b44 a3bf
00000170: 6a70 1abf d8d4 7cbf d474 dcbe ebe8 8cbf
00000180: d311 22bf 77bc 79bf 922c 2b40 39f9 ae3f
00000190: d9c1 343e 21c4 21bf ce77 08bf 8ed9 613e
000001a0: b2ec 043f d702 aa3f 498c 2b3f 3eb5 01bf
000001b0: 7f49 883f 70cc ca3d 4e01 973f b6d0 2cbe
000001c0: b22a a3bf ae45 1e3f b13f 59be 8c83 85bf
000001d0: 0061 6c3f 1d55 c13f 31c5 a5bf b97f 3c3e
000001e0: 0e08 a6be 43bd cb3f 2419 c2be c3bb d7be
000001f0: 71e7 293f af54 64bf 6b13 79bf d992 3d3f
00000200: e219 c83e a5ef febe f072 e3bf b6a7 08bf
00000210: 0bf1 b93e fa22 613f b5e9 4abf dd78 ea3f
00000220: 416d 603f 11a6 753f 8c40 6e3f 540e 7bbf
00000230: 5cc4 a5bf 4fbf 00c0 3e6d 843c 0814 33bf
00000240: eb15 bebf 062f a0be 48b0 603f 54c1 533f
00000250: 32c5 313e 9fdd 893f 9c08 7dbf c54e 1340
00000260: 67b1 80be f7bf e63e c89d b03f 06e9 b3bf
00000270: 2155 e43f 24f3 8f3e b742 44bf d9b5 89bf
00000280: 80b6 69bf 851b 4bbe 5edf 7d3e c2a4 ec3e
00000290: 3f4a 3cbe 885e 713d 8cae d8bf 8984 cfbf
000002a0: c02b 803e 11b3 b8bf d9ad 893f 4348 7d3f
000002b0: c27f ddbf 24f4 743d 94c7 b13f d6ab 95be
000002c0: eb18 8abf 9e7f e03e 62c7 8f3f eecc 51bf
000002d0: e48d c1bb f7b6 4abe 72de 3fbd d4c4 223e
000002e0: c570 5c3f 726f 853f 285d 05be 59c5 f5bf
000002f0: 2858 6d3e 9d18 57bf b0a0 cebf f81c 56bf
00000300: 7db6 b1bf 037b b1bf c787 01bf b09c b6bf
00000310: 5ccb 7ebf 9c44 243d ca40 983f c304 e53f
00000320: 4aae fabd cabe 783e 5c20 b9be feec d2be
00000330: ed46 dfbe 0f53 08c0 05b6 72bf 3646 9fbf
00000340: 8d50 bc3d 23a7 d53e f2f2 cabf 18b3 2dbe
00000350: 1bd5 44bf e4b3 f6be 6593 a7be 798d a33f
00000360: 230a dbbf d9d4 3abf 9857 06bf b42f 7cbf
00000370: 9e68 533f 2617 d5be d0f5 e53e a214 80bd
00000380: 54fb 81bf 06fd ad3d c651 90bf 72a3 71bf
00000390: 912a c7bf 2849 b83e 4f56 73bf 1dc9 96be
000003a0: 3476 b63e a32e 183e daa2 0040 5c4a 9dbe
000003b0: c9e6 af3f 0079 b5be 1144 89bc 0c6b a43f
000003c0: 4125 f1bf 38ed 22bf 1f16 f9bc d793 12bf
000003d0: 177c 95be e496 96bd b7a6 1abf 2846 25c0
000003e0: 4cae 083f afbf 1b3f 3a7e 66bf 9956 853f
000003f0: 6265 92bf f276 5abe 6748 8bbf c3a3 9dbe
0.46474665 0.044255253 -0.46145707 0.72293884 0.63213617 -0.42532882 1.3688853 0.015190043
-1.201539 1.1938832 0.37926748 -0.3736146 -0.047704235 -1.4531884 0.14628291 0.5061801
-0.39461684 -1.5292022 1.2119448 -0.71083874 0.1576685 1.2082157 -0.5869583 0.5733719
0.2956897 -1.2988651 -0.44060498 0.3089474 -0.26266202 -0.7702644 -1.3488255 -1.1387837
-0.9154957 0.40041292 -0.9728546 0.7504022 -1.2987822 -0.27710003 -1.1601026 1.3804886
-0.34272802 0.22449417 0.49188033 0.7815518 0.5265883 0.14631283 0.12849526 -0.15922005
-1.0315275 -0.9397456 1.3887584 -1.3500682 -0.23999116 -1.5606806 -0.39341894 1.2177737
0.18103243 -0.6689611 0.8535844 0.5478019 0.24886839 -0.30123863 0.7000564 -2.6238244
-0.17681094 -2.33588 -1.7786107 0.10593551 -1.094614 0.7312566 0.2429826 0.84497195
0.23922843 1.1053376 0.6052794 -0.6153392 -0.55199224 -0.53630495 0.5606737 -0.11338764
1.5384593 -1.2967979 -0.1425362 1.1903527 1.7504925 -0.1809337 0.04921939 -1.1422005
-0.7211928 0.053547494 0.6264222 -1.2755274 -0.6032778 -0.98762274 -0.43057883 -1.1008581
-0.6330845 -0.975532 2.6745954 1.3669807 0.17652072 -0.63189894 -0.5330781 0.22055647
0.5192367 1.3282117 0.67010933 -0.5066718 1.0647429 0.099022746 1.1797273 -0.16876492
-1.2747405 0.6182507 -0.21215703 -1.043077 0.9233551 1.51041 -1.2950803 0.18408097
-0.3242802 1.5917133 -0.37909806 -0.42135438 0.66368777 -0.89191717 -0.97295254 0.74052197
0.39082247 -0.4979221 -1.7769451 -0.53380907 0.36316714 0.87943995 -0.7926286 1.8318135
0.8766671 0.9595652 0.9306724 -0.9806874 -1.2950549 -2.0116765 0.016165372 -0.6995244
-1.4850439 -0.31285876 0.87768984 0.8271687 0.1736038 1.0770758 -0.9884126 2.3016827
-0.25135347 0.45068333 1.3798151 -1.4055488 1.7838479 0.2811519 -0.766643 -1.075862
-0.912941 -0.19834717 0.24792239 0.4621945 -0.18387698 0.058928043 -1.6928267 -1.6212322
0.2503338 -1.4429647 1.0756179 0.9893839 -1.7304614 0.059803143 1.3889031 -0.29232663
-1.0788854 0.43847364 1.1232722 -0.8195332 -0.0059068073 -0.19796358 -0.046843 0.15895396
0.8610957 1.0424635 -0.13023818 -1.9200851 0.2317816 -0.8402193 -1.6142788 -0.8363795
-1.3883816 -1.3865665 -0.50597805 -1.4266567 -0.9952905 0.040104493 1.1894772 1.7892078
-0.12240274 0.2429153 -0.361575 -0.41196436 -0.436088 -2.1300695 -0.9480899 -1.2443302
0.09195051 0.41729078 -1.5855391 -0.1696285 -0.76887673 -0.4818412 -0.3272964 1.2777549
-1.7112468 -0.7298103 -0.5247741 -0.9851029 0.8258151 -0.41619223 0.44914103 -0.062539354
-1.0154824 0.08495526 -1.1274955 -0.9439002 -1.5559865 0.35993314 -0.9505357 -0.29450312
0.35637057 0.1486154 2.0099397 -0.30720794 1.3742305 -0.35443878 -0.01675609 1.2845168
-1.8839494 -0.6364322 -0.030406056 -0.57256836 -0.29196236 -0.07352999 -0.60410637 -2.582407
0.53390956 0.6083936 -0.90036356 1.0417053 -1.143719 -0.21334437 -1.088147 -0.30789003

embeds.1.weight f4 [2, 1]
00000000: 93ce 90bd f288 593e
-0.07070651 0.21243647

embeds.2.weight f4 [7, 4]
00000000: aa08 a03e cadb b03e e00a 5a3f 3add e5bf
00000010: d188 ee3e 4960 38bf 6e12 913f f354 b13e
00000020: b12e c83f 0304 b0bf ff0a b9bf c48d ef3e
00000030: 1a4c 303f b791 92be ce39 01c0 292d d1bf
00000040: 1b1a 1bbf 4ea2 c3be 3a6c cc3f a6d1 1b3f
00000050: 9ed5 c93f d364 0ebf 3d08 a2bf 3538 cabe
00000060: 7027 493f 0ecd 4fbf fad4 14bf b928 253e
0.3125661 0.34542686 0.85172844 -1.7958138 0.46588758 -0.7202192 1.1333749 0.34635124
1.5639249 -1.3751224 -1.4456481 0.46787846 0.6886612 -0.28626797 -2.019153 -1.6341907
-0.6058671 -0.38209766 1.5970528 0.60866773 1.5768316 -0.55622596 -1.2658764 -0.39496008
0.785758 -0.81172264 -0.58137476 0.16128816

bn_cont.weight f4 [6]
00000000: 9a40 d83e f213 353f ff31 163f 05c2 db3e
00000010: 609d cb3e 7912 3c3f
0.42236787 0.7073356 0.5867004 0.42921463 0.39768505 0.7346569

bn_cont.bias f4 [6]
00000000: 7193 e93d 9bfa b23d 441c 9fbc d102 5e3d
00000010: 49ab 0fbe a24b 093c
0.11405075 0.087392054 -0.019422658 0.054201905 -0.14030184 0.008379849

bn_cont.running_mean f4 [6]
00000000: 7601 2342 eaf3 93c2 ef01 2342 edf2 93c2
00000010: 7d95 ac3f ca00 5440
40.751427 -73.976395 40.75189 -73.974464 1.348312 3.3125482

bn_cont.running_var f4 [6]
00000000: 1cf0 2d3a 90db 843a 544f 703a ef51 8a3a
00000010: 19a5 133f ae3e 3141
0.00066352054 0.0010136236 0.0009167094 0.0010552983 0.57673794 11.077803

layers.0.weight f4 [200, 23]
00000000: 430b 433d 6459 c3bd 6805 483d 60cf 16be
00000010: 9d57 06be c4bd 633d 1134 473e b399 89bd
00000020: 9b31 9cbc 7351 8a3d 8659 09be 0ad3 0f3e
00000030: a82c d03c e1e4 47bd a43e e5bd accf 963d
00000040: 70b4 b1bd aa84 64be 5361 d43d d84b 16be
00000050: d543 5d3e 2bc2 be3d 49a9 093e 5933 aebb
00000060: f864 933d 9aa1 4e3d 7d46 23bc 6b47 83bd
00000070: 92d1 d9bc 39da bbbd 050b 333b fc99 30bd
00000080: 5da5 943c a8b4 b03c 26cd 24bd 7932 f43d
00000090: 21a5 5f3d da78 c9bc de7b fabb ea5b 0c3e
000000a0: c3d9 56be 95a6 443d 01eb 83bd 2158 09bd
000000b0: 9d1f e53c 6247 493e a61f 82bb e1f1 0f3d
000000c0: 2b2e 243c 5a90 4abc 544d 5f3c 0af3 47bd
000000d0: d699 1e3d 814f a33c bb3f 42bd 868e f83b
000000e0: d035 c53c 6974 c8bc dcac 1c3c 26f8 11bc
000000f0: 1e4d 603c ed39 acbb f419 c13a 8fcd d4bd
00000100: e03b 2f3d 8a02 093d 4fc7 873d 5c85 e53c
00000110: 370e a1be 8517 14be 2889 653d c695 9bbd
00000120: a8e5 19be 65f2 4a3b d4c4 0a3e fb58 38bd
00000130: f029 c7bd f823 073e f764 b1bd cd0b cd3d
00000140: 0331 903d 63b7 9bbd 4e2c 86bd 5c2e 5ebd
00000150: da32 253d a3ab cdbd 69be 613d a8ab 4c3d
00000160: 5e41 313d dadf b8bd cb4c 5abe 3f07 54be
00000170: c3c3 01be 0bbb b23d d6cc b53d 3dbd c83d
00000180: c788 19bd 8e06 933d 5528 28bd 012e 403c
00000190: 5289 19be a271 863d b653 c8bd 1b9f e73d
000001a0: c8c6 02bc 7457 63bc 93fc 00bd 35d5 903d
000001b0: bf7d 713d 19d5 8fba 903c 6dbe 7eb1 243e
000001c0: 8c01 07be 02e1 1c3d 1a73 19be 07c4 b43d
000001d0: 01ce 633b acc5 a83d bd0d 1abe f445 71bd
000001e0: badf aabd c73d bbbd 757a d03c 7de2 febc
000001f0: d828 e4bd e872 013e a780 30be 84c6 0abe
00000200: 8b6a 7abd de85 193e 8b7d 60be e179 53bd
00000210: 4aa0 11be b6b0 7f3e 2c3d 15bd 25e3 9d3d
00000220: 1850 eb3d 9b62 2e3d fdca b7bd 3854 943d
00000230: 6a2d d3bc 8d27 a9bc bdb1 5e3d a972 3bbe
00000240: 1728 43be 672f 62bd 6b68 57be 730d a1bd
00000250: 046c 803d 9a5c c43d 7c31 00bc e431 0cbe
00000260: 9eb1 e13d cffd 7bbe 0ba3 03be 571c a63d
00000270: 0d3e 07be 13cb d13d 4fda 50be 3371 18bd
00000280: 172b 8ebd 3619 bc3a 8e9d 9fbd 25d5 cb3d
00000290: b234 cebd 4c8e 323e e173 bb3d 7d5c d1bd
000002a0: f0d3 693d 38d2 c33d 8432 1fbc a2dc 0fbe
000002b0: f782 ea3d 10fc 0dbe 962e bebc ad49 9ebd
000002c0: c580 bbbd 96de 9abd 235d 45bd 7329 353e
000002d0: ab67 853c aef5 51be 9fc0 bd3d 4244 41be
000002e0: 0b7d 173c a2a0 0d3d ac6c 773c f28c 0dbd
000002f0: 3492 bfbc 15ab 183d b350 9f3c 51a4 0cbc
00000300: 1b6f ffbc 4628 aa3b d840 90bc da75 43bc
00000310: f809 8d3d 58b7 33bc 474a 19bd 4dee 963c
00000320: 7993 e8bc a784 323d f723 9dbd 77ba 1a3d
00000330: 31a1 2fbe db3f 89bc 0603 a83e 73e3 0d3c
00000340: c611 a7bb 1cf2 bdbd 4a58 f2bc 5c99 433c
00000350: ab3f e03c e9c2 463d 5924 81bd cc63 62bd
00000360: ad0d b03d d128 06bd 4c5c 583d a543 21be
00000370: 8492 443c 8ec2 2f3d ca42 293c 9b4b 323d
00000380: 9808 433e 1c79 83bd 15e5 3f3e 366e 62be
00000390: 9d9c 013e a9a3 68be ae83 923c f9f1 553c
000003a0: f67e dd3c 1559 9dbc 136b 163b b1e1 9dbc
000003b0: 2f70 b73c 910c c33c 5190 c23c 6eff 4dbc
000003c0: e614 00bc 9eef b7bc d612 833e de11 a53c
000003d0: e995 deba 51c4 003c 9e69 383c b0e9 673c
000003e0: 516a fdbb 6ae6 573e 94c1 e63c 4dab b43d
000003f0: 1b79 87be a77a 67bc 4637 08bc a49e 9ebc
0.047618162 -0.09538534 0.04883328 -0.14727545 -0.1311936 0.055600896 0.19453456 -0.06718769
-0.019066622 0.067538165 -0.13413057 0.14045349 0.025411919 -0.04880226 -0.111935884 0.07363829
-0.08676994 -0.22316232 0.103701256 -0.1467737 0.21607907 0.09314378 0.13443483 -0.0053161797
0.07196993 0.050447084 -0.009965536 -0.06410106 -0.026589189 -0.09172482 0.00273198 -0.0431156
0.018145258 0.021570519 -0.040234707 0.119236894 0.05460084 -0.02459376 -0.0076441607 0.13706937
-0.20981507 0.048010428 -0.06441308 -0.033531312 0.027969176 0.19656137 -0.003971058 0.035142783
0.010020773 -0.012363518 0.013629276 -0.048815764 0.038720928 0.019935371 -0.04742406 0.0075853495
0.024073511 -0.024469571 0.009562697 -0.008909261 0.013690261 -0.0052559287 0.0014732466 -0.1039077
0.04278171 0.033449687 0.06629812 0.028017692 -0.31456158 -0.14462097 0.056039006 -0.075969264
-0.15029013 0.0030967232 0.13551646 -0.045006733 -0.09724796 0.13197315 -0.08661836 0.100120164
0.07040598 -0.076033376 -0.06551419 -0.05424343 0.0403317 -0.10042503 0.05511323 0.04996839
0.04327523 -0.09027071 -0.21318357 -0.20705889 -0.12672333 0.08727082 0.0887696 0.09801719
-0.037483957 0.071789846 -0.04105409 0.011729718 -0.1499379 0.065646425 -0.097815916 0.11309644
-0.007981963 -0.013875831 -0.031490874 0.07071916 0.05895781 -0.0010973542 -0.23167634 0.16083333
-0.13184184 0.03830052 -0.14985314 0.08826452 0.003476024 0.08240828 -0.15044303 -0.058904603
-0.08343454 -0.091426425 0.025449017 -0.031113857 -0.11140603 0.1264149 -0.17236577 -0.1355229
-0.061136764 0.14992473 -0.21922891 -0.051629905 -0.14221302 0.24969754 -0.03643529 0.0770934
0.11489886 0.042574506 -0.08974264 0.07242626 -0.025778491 -0.020648742 0.054368723 -0.18305458
-0.19058262 -0.055220988 -0.21035926 -0.07863893 0.06270602 0.09587975 -0.007824298 -0.13690907
0.11020206 -0.24608539 -0.12855165 0.08110874 -0.13207264 0.102438115 -0.20395778 -0.03721733
-0.069418125 0.0014350775 -0.07793723 0.099527635 -0.100686446 0.17437094 0.091529615 -0.10222719
0.057086885 0.095615804 -0.009716634 -0.14049008 0.11450761 -0.13865685 -0.023215573 -0.07728896
-0.0915542 -0.07561986 -0.048184525 0.17691593 0.016284784 -0.20503876 0.09265255 -0.18873695
0.009246121 0.03457702 0.015101593 -0.034558244 -0.023385145 0.03727253 0.01944766 -0.008584098
-0.031180909 0.0051927892 -0.017609045 -0.0119299535 0.06886667 -0.0109690055 -0.037424352 0.018424178
-0.028390633 0.04358354 -0.076728754 0.037775483 -0.17151333 -0.016754081 0.32814807 0.008660185
-0.0050985543 -0.09274694 -0.029583115 0.011938419 0.02737411 0.048525725 -0.06305761 -0.055270955
0.085963584 -0.03275377 0.052822396 -0.1574846 0.011997823 0.04291015 0.010330865 0.043529134
0.19046247 -0.06419584 0.18739732 -0.22112355 0.126574 -0.22718681 0.017885055 0.013058179
0.027038079 -0.019207517 0.0022952005 -0.019272657 0.02239236 0.023809703 0.023750456 -0.012573106
-0.007817483 -0.022453126 0.25600308 0.020150121 -0.0016981933 0.0078593055 0.01125565 0.014154837
-0.007733621 0.2108399 0.028168477 0.088217355 -0.26459584 -0.014128364 -0.008313959 -0.019362755

layers.0.bias f4 [200]
00000000: da46 2bbb bb84 133e d5a4 263c 9a2a a03d
00000010: ec79 513e 45d7 a8bd c378 113e 4aef abbd
00000020: 98af c8bb 4080 0d3e 3679 debd 46be 5b3e
00000030: a69f 933d d16a f43d 139a 8a3d cca0 d1bc
00000040: d4c5 ca3d 15e4 63bd 24f0 eabd 266b 8c3d
00000050: 44d8 f13d 389d 41be 6a5e cabd bf3a 713e
00000060: 6df8 323e b893 5c3d e182 2e3e 4ea8 b6bd
00000070: 99d4 9e3d f246 123e 5081 6f3d 8f95 f1bc
00000080: c19c 973d 02b8 71bc e64e c7bc 3072 053e
00000090: 6262 0abe 6816 e43d 8650 1e3e ca54 cd3d
000000a0: cb87 6fbc aff6 c1bc a78c 8b3e e016 5e3e
000000b0: 691b 8abd e272 22be 68a1 6cbd 9955 1a3d
000000c0: baa8 703d 1dd5 07be 3f89 a3be 1fc5 5e3c
000000d0: f237 373e 90f1 d03c a122 153e 3bdf 14bd
000000e0: a105 62be 36bf d03d e806 043e de6f 92bd
000000f0: dbba ff3d dd4a 02be 523b 453e 7d58 abbd
00000100: 739a 2f3e 37a7 70bd 5603 053e 79fd 04be
00000110: 6b67 b5bd a292 243e 894f 203e 1665 8f3d
00000120: 884f 1a3e f378 5a3e 3a1b 813e e083 b03d
00000130: 7716 133d 8d10 c3bc 5896 aa3d bc05 bbbd
00000140: 2c5a e6bd a59b c43c 0f24 b9bd 1df1 8b3e
00000150: aa96 183d fb9a d3bb f646 3a3e 118c edbd
00000160: 0789 ca3d e15b 64bd 1752 153e b112 a33d
00000170: 28c1 263e d5ab 24be 494a 023e d41e e63c
00000180: 5e90 143e e099 8b3d fd33 953d 084d 35be
00000190: 6cfc 7f3e fbc5 1c3e 6e18 6cbd f084 913b
000001a0: 173a 363e fe2a 293e 59d3 74bc ae7f aa3d
000001b0: 5d60 123e e252 f2bc 9a3a 243e 2354 3dbd
000001c0: a24f 873d 972d 22bd e006 023e fea8 88bd
000001d0: 68d5 07be 4d5c e93d 43b9 853d a2af ccbd
000001e0: 542e be3d 485f f63c 3573 7d3c 0e14 d33d
000001f0: 5b3f 573e db84 353e d237 8b3d 8650 de3c
00000200: 47fc aebe f272 593e 369d 8bbd 99a2 ea3c
00000210: 7ad0 653e af1a 423d 42a0 6c3e 4365 c3bc
00000220: 80cf 683d eeb8 543e 30c0 a6bb 820c 083e
00000230: ddfc 223e fc49 ef3d cd6a f23b 82d4 c03b
00000240: 07db 063e bc82 8d3c 84d0 1f3b 8f3b f5bd
00000250: a4f1 81bd 3fd9 623e 4f18 293e 4532 1c3d
00000260: 26ee a5bc e086 2c3e 02bf 2f3e 8b86 543e
00000270: 5149 50bd 015b 9b3d b466 eebd fb23 2bbd
00000280: e4cc 363e 5327 5e3d eb6b a43d 8f8c 4bbe
00000290: 3d3f b23c b87a 4c3e 195c 2a3e 702b 4bbe
000002a0: ee1a f13c 709f ecbd c03f bfbd 17a0 213e
000002b0: 80d5 25be 2923 45be 99a4 333e 6fbf f9bd
000002c0: 6f29 3e3e 2d53 423d 57fc b1bd 35d2 e1bd
000002d0: d5ee ab3d e498 363e 722e d13d 4c18 303d
000002e0: a819 44be ef2d 053e 87a4 05be 06cc 33bd
000002f0: 23a1 833e 6ad2 19bb af2e f4bd befe 0a3e
00000300: 4fbd 1f3e 1c32 3b3e 74d0 ed3d c4c7 4d3e
00000310: ce87 a7bd 5b22 463e f438 803e 600c d33d
-0.002613476 0.14406101 0.010171135 0.078206256 0.20456666 -0.082441844 0.14206223 -0.0839525
-0.006124448 0.13818455 -0.10862963 0.21459302 0.07208185 0.11934436 0.067676686 -0.02558937
0.09901014 -0.055637438 -0.114715844 0.068563744 0.118088275 -0.1890763 -0.09881289 0.23557566
0.1747758 0.053851813 0.17042114 -0.0891882 0.077553935 0.14284876 0.05847293 -0.02949026
0.07402945 -0.014753344 -0.024329614 0.1303184 -0.13514093 0.11137086 0.15460405 0.10025938
-0.014619778 -0.023677198 0.27255747 0.21688414 -0.06743509 -0.15864137 -0.057771116 0.03767929
0.05875466 -0.1326489 -0.31940648 0.013596802 0.17892435 0.025505811 0.14563991 -0.0363457
-0.2207246 0.101927206 0.1289326 -0.07150243 0.12486812 -0.1272387 0.1926091 -0.08366487
0.17148761 -0.05875322 0.12989554 -0.12987317 -0.08857616 0.16071561 0.1565534 0.070017025
0.15069401 0.21335201 0.25216085 0.08618903 0.035910096 -0.023811603 0.08329457 -0.09131953
-0.11247668 0.023999998 -0.09040081 0.27332392 0.03725306 -0.006457684 0.18191132 -0.11598981
0.09889417 -0.055751685 0.14582096 0.079625495 0.16284621 -0.16081174 0.1272365 0.028090872
0.14508197 0.06816459 0.072853066 -0.17705166 0.24998635 0.15309899 -0.057640485 0.004440896
0.17795597 0.16520306 -0.014942967 0.08325134 0.14294572 -0.029580537 0.1603798 -0.046222817
0.06606986 -0.03959426 0.12697935 -0.06672858 -0.13265002 0.11394558 0.065294765 -0.09994437
0.0928618 0.03007473 0.015469362 0.103065595 0.21020262 0.17726462 0.06797756 0.027138006
-0.34176847 0.21235254 -0.06817095 0.028641986 0.22442809 0.04738873 0.23108009 -0.023851996
0.056838512 0.2077367 -0.0050888285 0.13286021 0.15916772 0.11684033 0.0073979856 0.005884708
0.1316949 0.017274253 0.002438576 -0.119742505 -0.063449174 0.22153185 0.16513179 0.03813388
-0.02025516 0.16848326 0.17162707 0.20754449 -0.05085117 0.07585717 -0.11640683 -0.04178236
0.17851597 0.05423672 0.08028396 -0.19877838 0.02175867 0.19968688 0.16636695 -0.19840789
0.029431786 -0.11553848 -0.09338331 0.15783726 -0.16194725 -0.19251694 0.17543258 -0.12194716
0.18570493 0.047442604 -0.08690708 -0.11026422 0.08395163 0.1783176 0.10213937 0.04299192
-0.19150412 0.13005804 -0.13051043 -0.043895744 0.25708875 -0.0023471364 -0.11922967 0.13573739
0.15599559 0.18280834 0.11612025 0.20095736 -0.081801996 0.19349043 0.25043452 0.10305095

layers.2.weight f4 [200]
00000000: 1003 5d3e ffee 303f c617 463f 03e5 493e
00000010: f2ac eb3e 440d 083f 75b9 a43d 6694 2d3f
00000020: 97ee 9c3e 7f28 e43e 3492 1f3e cee6 b63e
00000030: 760b a43d 0e29 113f f75f 483f 498c 533f
00000040: 56e8 083f e4c1 a03e 9868 203f c356 423e
00000050: 4dcb 263f 349d 2a3f fc04 6a3f ac95 643f
00000060: 5a71 6c3e 611d a73e d12c 333f e0f2 0c3f
00000070: a573 1f3f 445b f03e ea88 dd3d 7e7e 673f
00000080: 993d 0f3e c3c8 3f3f 271a 413f d0a8 5f3f
00000090: 89eb f13e 5ca3 623e 9164 e13e 50b4 2e3f
000000a0: beab 683e ce3c 163f 7793 5e3f 59d9 5d3e
000000b0: c2f2 de3e 05e7 183f c6af fd3e 5753 693f
000000c0: 0fac 343f a42b fe3e b041 363e 1e39 6e3f
000000d0: 189c 253f 757b ea3e c376 493e ef89 663f
000000e0: 3264 2b3f f481 633f c911 723f c984 363f
000000f0: 9786 3b3f 0bfc 343f 634d 383e 2b24 e93e
00000100: e35f e53e 8f37 123e 2fa8 9c3e 83e0 2f3f
00000110: f9df 343f 8d56 af3e 95de ff3e 1942 2b3f
00000120: 8e68 213f d4cc 363f 04bd 3a3e cde4 003f
00000130: 5853 d83d cc0a cb3e df0f 103f 32c2 c63e
00000140: e538 583f 5d6e 4b3e 91b9 443f 0c13 2f3e
00000150: 70b7 993e b907 df3e 1032 a13d ff0e b83e
00000160: 2a8e d03e 66e5 143f b797 1f3f f884 eb3e
00000170: 885e 2c3e e784 c73d 5f1c 663f e3fe c13e
00000180: d2ee c63e b5b8 813e c20c 373f d2b4 123e
00000190: b4a8 3a3f 2545 eb3e 884f 103f 37d0 be3e
000001a0: 90e9 c83d eff7 533f 2173 473e e1ca 5a3f
000001b0: 830a 0a3f 9851 603f 8d97 783f 08ab 1b3e
000001c0: 46b0 c73e 991a a13e 50b0 603e b96a 1c3f
000001d0: 5863 ed3e 8571 3e3f 7748 293f 9267 003f
000001e0: 6e19 443f 2631 df3e 08ed 043e f4a4 073f
000001f0: bfe9 423f f7ac f63e 4d58 a63e 452e 1b3f
00000200: 28bf 6cbe 061b a63e e402 ab3d eae5 b53e
00000210: 3e8d 543e 9de6 473f e78a 4a3f 6081 083f
00000220: 6aa5 653e 375e cd3e 40c6 6e3f 76be 3d3e
00000230: 68e5 723f 2b0f 803e bf47 083f 9933 4c3e
00000240: a135 0f3f d731 5a3f 2a2a 183f 064b 413e
00000250: 1621 693f c155 b63e 9e83 fc3e c4bf 133f
00000260: 9e1f 673f 4981 4d3f 1b17 0f3f 7555 363e
00000270: e998 623f 3638 eb3e 8206 5b3e 5822 0f3f
00000280: 699d 023f 4e0b d33e d966 d63e 82c2 5c3f
00000290: a070 de3e 3514 163f d507 ae3e 1f23 003f
000002a0: 9a21 233f 4b86 2a3e 0aec 6a3f f725 253f
000002b0: f4b0 f63e 4a55 553f bdef 803d 3d77 833e
000002c0: 3deb f63d d662 773e f8f5 70bd d221 303f
000002d0: a2d1 473f 9bb6 c73e b9ec 4b3e b653 5b3f
000002e0: 241b df3e 74c5 083f 9502 b93e 5044 643f
000002f0: 996d 3f3f bb7d dc3e f945 313f 3136 cf3e
00000300: 52e9 b53e 3049 6f3f 1fa7 1d3f 5391 0d3f
00000310: 57c1 163f 9fb5 533f 7e06 d53e 6ac6 1c3f
0.215832 0.6911468 0.77380025 0.19716267 0.46030384 0.5314524 0.080431856 0.67804563
0.3065078 0.44562146 0.15583116 0.35722965 0.080099985 0.5670327 0.7827143 0.82635933
0.53479517 0.31397927 0.626596 0.1897841 0.6515396 0.6664612 0.91413856 0.8929088
0.23090115 0.32639602 0.6999026 0.550581 0.62285835 0.4694463 0.1081713 0.90427387
0.13988341 0.74915713 0.7543053 0.8736696 0.47250012 0.22132629 0.4402204 0.68243885
0.22721764 0.5868653 0.86943763 0.21664943 0.43544585 0.5972751 0.49548167 0.9114279
0.7057504 0.4964267 0.17798495 0.93055904 0.64691305 0.45797315 0.1967421 0.9005422
0.6694976 0.8887017 0.9455839 0.71296364 0.7325224 0.7069709 0.1799827 0.45535406
0.44799718 0.14279006 0.30597064 0.6870195 0.70654255 0.3424572 0.49974504 0.6689773
0.6305016 0.7140629 0.18236166 0.5034912 0.105627716 0.39656675 0.5627422 0.38820034
0.84461814 0.19866319 0.7684565 0.1709711 0.30022764 0.4356058 0.07870877 0.3594894
0.40733463 0.58162534 0.62340873 0.45999885 0.16832936 0.09742146 0.8988704 0.37889776
0.3885408 0.25336233 0.7150384 0.1432679 0.7291367 0.4595119 0.56371355 0.3726823
0.098101735 0.8280019 0.19477512 0.8546582 0.5392229 0.876245 0.9710625 0.15201962
0.39001673 0.31465605 0.21942258 0.61100346 0.46364856 0.7439197 0.661262 0.50158036
0.766013 0.43592185 0.12981045 0.52986073 0.7613792 0.48178837 0.32489243 0.60617477
-0.23119795 0.32442492 0.08350161 0.35526973 0.20757005 0.7808626 0.791182 0.5332241
0.22426382 0.40110943 0.93271255 0.18529686 0.94881296 0.25011572 0.53234476 0.19941558
0.55941206 0.852323 0.5943934 0.18876275 0.9106611 0.356123 0.49319166 0.57714486
0.9028262 0.802754 0.5589463 0.17806037 0.8851457 0.45941323 0.21389201 0.5591178
0.5102144 0.41219562 0.41875342 0.86234295 0.434453 0.58624583 0.3399035 0.5005359
0.63723147 0.16652791 0.9176642 0.64511055 0.4818188 0.83333266 0.062957264 0.2567691
0.12056587 0.24158797 -0.058828324 0.68801606 0.7805425 0.39006504 0.19914521 0.8567461
0.43575394 0.5342629 0.36134782 0.89166737 0.7477661 0.43064675 0.69247395 0.40471032
0.35529572 0.9347105 0.6158313 0.5529987 0.58888763 0.82699007 0.41606516 0.61240256

layers.2.bias f4 [200]
00000000: 1ef3 d6bd aa49 89ba 8bfa eabc f4c3 773d
00000010: b904 e9bd 3631 18be 6c02 a43d 0b1f 423b
00000020: fab6 183d e8da a7bd 9dbb 063b 0715 b23c
00000030: 56a9 2ebe 18c3 a4bd 8298 bdbd e502 4dbd
00000040: 4bbb ba3b c3c5 8fbd f157 00be 02b9 2f3e
00000050: c38c 11bd ec0b e9bd 1e78 3bbc 4424 fe3c
00000060: 57ab 5f3d 5ca4 93bd 9270 a63d 56df 7bbb
00000070: 695c 6e3d ad71 cabc ee0d 94bc 48a3 3e3e
00000080: 8df1 a33c 240e 9c3d 94b6 b2bd 5392 023d
00000090: 85bb e0bd b7ad 43bd 8dd9 433d 099a e1bd
000000a0: b3ee 3f3c 1ca5 da3d 8367 d23d 0909 4bbd
000000b0: c332 003c aeed f4bd 0580 613c e992 b73c
000000c0: 2cb6 febd 65ca ab3d af32 943c dc5a 0d3c
000000d0: e6b8 30be 078b 2dbc 723d 353d e095 303d
000000e0: 4ee5 1e3d 26f6 9d3d 9e36 d4bc 94df 48bc
000000f0: 38c3 90bd fbf1 ecbd 9308 d7bd a08b dfbc
00000100: 8374 50bc 2410 1dbc a848 a13b eceb 823d
00000110: 1dde d53c 55cd 263d 3282 63bc 1aac 54bd
00000120: 029b 573d be65 db3d 24cf 803c 4007 493d
00000130: 64e9 51be f907 b2bd 5cbc a7bb a23d 2f3d
00000140: 19fd b13c 4042 ae3c 4038 7a3d 835a 15bd
00000150: 5c4d d73c db0d 6b3d 72d0 ebbb 6c4b 50bd
00000160: e354 643d 7fe7 6d3d 249a 23bd 16de fc3c
00000170: 69af ec3c f283 6b3c eb6b 77bd ec11 593d
00000180: 1b0d 68bc 48af 043e 4f45 a23d b0ac 0f3d
00000190: 0126 b53d 2f1b 243d a88b b33c d3a5 a5bc
000001a0: 1060 6a3e f392 703d c96b aa3c 48e5 033e
000001b0: 8717 fbbd 18d9 473c a997 713d 0ee2 d6bd
000001c0: 0173 26bc 9a90 46bc 413e 013c e141 0a3a
000001d0: 6c6b 5a3c e054 ed3d dafc 7d3c 7548 52bd
000001e0: 0b6c b33c 9839 96bd 985e 8d3a 4874 eebd
000001f0: df7b 423d b543 6fbd 7801 89bd 6ef5 c2bc
00000200: 8ae7 213e 3f41 683d e458 5e3e 5c6e 68bc
00000210: d9ee cb3c a392 303c 0f73 9a3d 63bf bc3d
00000220: 2e0b 0e3d c075 b83d b0c4 54bd 7d58 bd3c
00000230: ad9a 213d de07 0abd 64d9 a2bd 6c5c 39be
00000240: 5d90 89bd ca27 0f3d ff3d b5bd eda0 b0bd
00000250: 57ec e9bd d251 bcbd 5725 8f3d 8073 433d
00000260: b38d 1f3d c8b7 b83d 317e e7bc 9165 053d
00000270: 106d c4bc 3246 393d be31 c63b 724d e83d
00000280: d615 263d d152 95bc af76 933d 5e5a e9bc
00000290: b281 713d bf17 023d e32c 283d 8252 06bd
000002a0: c749 983d e0e1 913d 156e bc3d 4bd3 53bd
000002b0: ef63 43bc 5694 b7bd dc58 56be 88f5 0dbd
000002c0: 5c84 583d 649e 583d 5efd 58be 0ecb f6bd
000002d0: aec7 b53d b127 b03d ea39 253c f0eb 023a
000002e0: ed86 81bd 18c3 b23c 2234 2ebd 7d5a 353d
000002f0: 9800 babd 1b0d 353d 7da8 27bb 8c6f ce3d
00000300: 4e87 74bd 8484 823d 0e3a 753d b034 a93b
00000310: 6d40 a1bc 5072 2b3d f5e3 243d 9436 29bd
-0.1049559 -0.0010474224 -0.028683921 0.06048961 -0.11377854 -0.14862522 0.080082744 0.0029620554
0.037283875 -0.0819605 0.0020558604 0.021738542 -0.17056784 -0.08045024 -0.09257604 -0.05005159
0.0056985966 -0.07020142 -0.12533547 0.17160419 -0.03553463 -0.11379227 -0.011442212 0.031023152
0.05460676 -0.072090834 0.0812694 -0.003843268 0.058193598 -0.024712408 -0.018073048 0.18616974
0.020012641 0.076198846 -0.0872623 0.031877827 -0.109732665 -0.04777309 0.047814894 -0.11015708
0.011714625 0.10676023 0.102736495 -0.049569163 0.007824603 -0.11959396 0.013763432 0.02240892
-0.1243709 0.08388213 0.018090574 0.00862762 -0.17258033 -0.010592229 0.044248052 0.043111682
0.0387929 0.07712965 -0.02590495 -0.012260336 -0.07068485 -0.115695916 -0.10499682 -0.027288258
-0.012723091 -0.009586368 0.0049219914 0.06392655 0.026106888 0.040723164 -0.013886021 -0.05192194
0.05263806 0.10712765 0.015723772 0.04907918 -0.20499188 -0.08692927 -0.0051188897 0.042783387
0.021727132 0.021271825 0.0610888 -0.03646327 0.026282005 0.05738626 -0.0071964795 -0.050853178
0.055745017 0.0580821 -0.03994192 0.030867618 0.028892236 0.01437472 -0.060405653 0.052995607
-0.014163281 0.1295749 0.07923376 0.035076797 0.08845139 0.040064987 0.02191718 -0.020220673
0.22888207 0.05873389 0.02080335 0.12880433 -0.12260347 0.012197755 0.058982525 -0.10492335
-0.010159255 -0.012119437 0.007888378 0.0005274099 0.013331275 0.11588454 0.015502179 -0.05133863
0.021902105 -0.07335204 0.0010785637 -0.11643273 0.047481414 -0.05841418 -0.06689733 -0.02379867
0.15810981 0.05670285 0.21713597 -0.014186468 0.024894165 0.010777148 0.07541477 0.092161916
0.03467863 0.09006834 -0.05194539 0.023113484 0.03945415 -0.03369891 -0.0795162 -0.18101662
-0.06716988 0.034950055 -0.088497154 -0.08624444 -0.114220314 -0.091952935 0.06989544 0.04771757
0.038953494 0.090194285 -0.028258415 0.032567564 -0.023977786 0.04523296 0.00604841 0.113428965
0.040548168 -0.018227967 0.072003715 -0.028485473 0.058961578 0.031760927 0.041058432 -0.03279353
0.07435947 0.0712316 0.09200684 -0.051715177 -0.0119256815 -0.0896384 -0.20932335 -0.034657985
0.052860603 0.052885428 -0.21190402 -0.12050448 0.088759765 0.086013205 0.010084609 0.0004994264
-0.06324563 0.021821544 -0.042530186 0.04427575 -0.090821445 0.04420195 -0.0025582605 0.1007987
-0.05969935 0.063729316 0.05986982 0.0051637515 -0.01968404 0.041857064 0.04025646 -0.041311815

layers.2.running_mean f4 [200]
00000000: e138 933e 67a1 533e 79a1 a93d ed09 783e
00000010: 9667 7c3e ebd8 393e e6f4 9b3e 06e0 313e
00000020: 68c6 b63d b423 383e 5e3d 4e3d 7c25 863e
00000030: c17e 2a3e b2dd 293e e3fd 603e 78c5 343e
00000040: c3ff aa3e 2a03 d63d 66c5 7e3e b398 143e
00000050: d743 eb3e 8a40 e43d bac0 4c3e 36ce 923e
00000060: 1084 5d3e c0fb 9a3e 1ed2 a93e e167 4a3d
00000070: fedb 113f f97c 913e 29ca 443e b294 993d
00000080: 057a 323e 2ffd b03e 7454 053e 0eee 843e
00000090: 946e 153e e3c5 b43e 2afa 393e c1c9 813e
000000a0: 0787 9a3d c732 a63d ace0 ca3e 14ce b93e
000000b0: 512d db3d d38d 843e 5816 103e 688c d33d
000000c0: df45 093e 8c4a e53d 19fd 7b3d 3709 c93d
000000d0: 24d1 5d3e 342f d23e 2280 393e 1b99 0c3e
000000e0: e85b ec3d 84f6 e33e f6ca b63e 4d4f 813e
000000f0: f8ad a13e 423f 3a3e 2cdf bc3e 1dbf b33d
00000100: 032a cd3e 8887 213e ca66 563e 24d0 233e
00000110: a69d 1c3e 5e5b 623e 6a64 593e 00b3 053e
00000120: f737 b93e 3057 723e f2bb 6d3e 0751 e53e
00000130: 6795 8a3e 0664 373e bd64 c13e 6750 5b3d
00000140: 0278 db3d fd2f 1f3e c118 f43d 9683 a03e
00000150: 6c23 8a3e 5b76 413d 342b 9d3e a280 0f3e
00000160: bd0c f73d 02ed 763e b212 403e ebe0 283e
00000170: 9981 4f3e d762 b33d cac4 e53e 127b 583d
00000180: 2f0b 503e 6057 fc3e 5d54 603e 4c67 d53d
00000190: 5317 7e3e abca 783e fa88 903d c27c 2a3e
000001a0: 2c04 ae3e b207 a33e 1b68 ce3d e9f9 163e
000001b0: ec0b 923e c05c 9d3e f2b4 303e 3a74 9f3e
000001c0: bd05 4e3e e2ea 473e a26b f83d 3307 553e
000001d0: 9efa 6a3e 4ac0 043e 3d9a 273e 4f2b d53d
000001e0: bef5 a43e ee69 283e f1d1 8f3e b152 da3e
000001f0: a8b7 ad3e a8d9 963e 287c 513e 8013 683e
00000200: 0d20 973c 5167 813e b0ec 8f3e d4fb 173e
00000210: ef56 8c3e a54d 293e 319a ca3e 6915 793d
00000220: f8a3 9e3d 53c4 be3e 757e 543e a83b 123e
00000230: e8b4 813e d92c 483e 7d2d 313e f726 393e
00000240: f4c7 323e 9160 323e ffc9 013e ff20 403e
00000250: e075 3d3e b3f3 a43e 3422 6b3e 798e 8e3e
00000260: fcea 0b3e 2023 953e 456e 683e 2d39 823e
00000270: ff86 293e e6e2 633e 7ddb 2a3e 168c 633e
00000280: 7e1e 8b3e 9b87 903e f8d4 d53e 12ec 283e
00000290: 6b37 233e cb31 ad3e 6d75 323e 13ec 8b3d
000002a0: fc97 7e3e c409 5b3e 243a b53d a030 9a3e
000002b0: 4a6e cf3d 4e29 2b3e 7af1 cd3e f6fa 8e3e
000002c0: eeee dc3e c537 cc3d 01fd 343e 0d39 e83d
000002d0: e9e9 403e 4c35 673e 0405 433e f181 983e
000002e0: 9526 1e3e 1138 163e b7b4 1a3e 847d 473e
000002f0: e911 7e3e b533 463d fcff 323e b38f 323e
00000300: cee4 733e 9108 803e 7b5a 433e 0dd1 c83e
00000310: 035f ec3d c2b5 e93e 7fbf 813e 2b22 573e
0.28754333 0.20667039 0.082827516 0.24222536 0.2464889 0.18149154 0.3046028 0.17370614
0.08924562 0.1798237 0.050351493 0.26200473 0.16649915 0.16588476 0.2197185 0.17653453
0.33398256 0.10449822 0.24879989 0.14511375 0.45950195 0.11145122 0.19995394 0.2867295
0.21632409 0.30270195 0.3316812 0.049415473 0.56976306 0.2841566 0.19217743 0.074990645
0.1742936 0.34568164 0.13020498 0.2596287 0.14592963 0.35307226 0.18161836 0.2534924
0.07545286 0.08115154 0.39624536 0.36290038 0.10702003 0.25889453 0.14071023 0.10329515
0.1340556 0.11195859 0.06152067 0.09816211 0.21661812 0.41051638 0.18115285 0.1373028
0.11540967 0.44524014 0.35701722 0.25255814 0.3157804 0.18188193 0.36889017 0.08776686
0.40071115 0.15774357 0.20937648 0.15997368 0.15294513 0.22105166 0.21229711 0.13056564
0.3617551 0.23666072 0.23216227 0.4478838 0.2706711 0.1790925 0.3777217 0.053543475
0.10716249 0.1554565 0.11918784 0.31350392 0.2698015 0.047232013 0.30697024 0.14013913
0.120629765 0.24113849 0.18757132 0.1649205 0.20264281 0.087590866 0.448767 0.052851744
0.20316766 0.49285412 0.21907182 0.10420093 0.24813585 0.24296062 0.07057376 0.16649154
0.33987558 0.3184181 0.1007845 0.1474377 0.2852472 0.30734825 0.17256525 0.3114336
0.20119376 0.19523194 0.12129904 0.20803528 0.22947165 0.12963977 0.16367431 0.10408651
0.32218736 0.16446659 0.2808986 0.42641214 0.3392918 0.29462934 0.20457518 0.22663689
0.0184479 0.25274137 0.28110266 0.14842159 0.27410075 0.16533525 0.39570764 0.060811434
0.07746118 0.37259158 0.20751365 0.1428057 0.25333333 0.19548358 0.17302509 0.1808127
0.17459089 0.1741965 0.12674712 0.18762587 0.18501997 0.32217178 0.22962266 0.27843073
0.13663858 0.2912836 0.22698314 0.25434247 0.16555403 0.22254524 0.1668529 0.22221407
0.271717 0.2822846 0.41764045 0.16496304 0.15939109 0.33827052 0.17427607 0.06832137
0.24862665 0.21390444 0.0884898 0.30115223 0.10128458 0.16714975 0.40223294 0.27925843
0.4315104 0.09971575 0.17674638 0.113390066 0.1883923 0.22578925 0.19044882 0.29786637
0.15444405 0.14669825 0.15108 0.19481474 0.2481152 0.048389155 0.17480463 0.1743763
0.23817751 0.25006536 0.19077484 0.39221993 0.115415595 0.45646483 0.25341412 0.21009128

layers.2.running_var f4 [200]
00000000: 5ccd 0c3e 20ac 743d b8ae 2e3c 3d4d c23d
00000010: d1d3 913d f0d3 de3d a778 423e 3fdf 7f3d
00000020: 2783 dc3c 2b85 143d a983 e73b d9cd af3c
00000030: b0c3 b13d 1b91 f63c 2803 d33d c53d 8e3d
00000040: 34e4 d73d 9d41 1f3d c440 be3d c7fc 313d
00000050: 5d7b 803e b263 593d 8c2f 963d 7bd4 a63d
00000060: c493 743c 0a42 cd3d f4f6 373e 7ad6 043c
00000070: 5292 6a3e 4f43 593d c19f 093d f0b4 433d
00000080: 3c76 b33d 6f1c 283e 7389 373d 3839 a53d
00000090: 3b4d 823d 8bfe 433e 6a57 283c 22c9 9f3d
000000a0: 07e9 ca3c a6a9 353d f2cc 203e 63fe 283e
000000b0: 84ec 2d3d d39b 0e3e 0f09 513d c9ff d93c
000000c0: 2178 db3c 3298 1d3d 88b0 143d 7e56 1b3d
000000d0: fb46 b13d a7d8 203e 56e2 333c 3053 4c3d
000000e0: 5cda 1d3d 0e71 8f3e e251 243e 5d0f b03d
000000f0: 9da2 ee3d d698 8e3d c0b7 583e 5ce3 5a3c
00000100: c9de 1b3e eb23 093d d828 a23d 1792 a33d
00000110: ed14 993d 229b 823c a971 663d f585 b93c
00000120: 0556 e33d 3ea5 2a3d fe34 593d 10e0 633e
00000130: c45e f93d 1dc5 983d cf80 553e 7ce1 1e3d
00000140: 6daf 4a3d c37c 3b3d 322c 423d 85ee 163e
00000150: 5dfa e53d 44b7 cf3c 4042 653d 7594 9f3d
00000160: e2de 193d b24a 113e 98aa d73d 2471 6a3d
00000170: 3c5b 763c d327 063d 3e13 5a3e 12b6 aa3c
00000180: 6413 b13c 21ba 833e 91fb 9d3d 4592 203d
00000190: 97e3 553d 58be b43d 1d19 dc3c bd28 8f3d
000001a0: f71c 3d3e 654e e13d 7573 163d 5519 333c
000001b0: 3398 a33d f1bc 143e 883b 543d a0d0 253e
000001c0: 0628 da3d c292 983d 56c3 9c3c 8be9 df3d
000001d0: 37eb ec3d bb40 423d 038d 643d c4df ea3c
000001e0: 9397 053e 27f9 3f3d 1a7f a13d 053c 2f3e
000001f0: 9231 ab3d 7434 993d 6024 403d 3ed3 b03d
00000200: 858b 083c 186b a53c a1f6 533e 4219 563d
00000210: be0f bb3d 6694 b73d c8ca d53d 85f3 893b
00000220: b71f 0b3d 024d ca3d 34ef 443d 68d1 433d
00000230: c5bd 1d3e 3d1c be3d c832 773d db8a be3d
00000240: 0d4d c93d d389 9f3d 73b0 a53c 66ce b83d
00000250: e2de a43d 103d 353e 6735 fe3d d500 e13d
00000260: fd64 6a3d a12b 0a3e 6e57 0c3d 58e9 a63c
00000270: c98b 653d ea50 8e3d 0aa6 833d 8141 b93d
00000280: ad61 f33d c844 273e 45e6 153e 0709 d03d
00000290: e48c 853d 7fa2 323e d6f4 853d 4845 dc3c
000002a0: 1b5a 163e ab27 d13d 0155 243d 1064 243e
000002b0: 8d74 033d a4b0 b73d 614a 3f3e a0a3 153e
000002c0: 0a64 223e be94 823d 3bd1 f53d 5982 5a3d
000002d0: 42bf 703d 5922 8c3c 930f 7f3d 4284 3b3e
000002e0: 9434 833d 6379 623d 4147 763d 9201 b53d
000002f0: 96f2 163d 2d8f ed3c 7f91 583d ae48 2d3c
00000300: 15c8 8a3d d9ba ac3d c048 c73d 3584 903d
00000310: c5fe 673d 7a22 e63d 2700 393d eddd 5b3d
0.13750213 0.059734464 0.010661773 0.09487388 0.07120479 0.108802676 0.18991338 0.062468763
0.026918007 0.03625981 0.0070652557 0.02146046 0.086799026 0.030098489 0.103033364 0.06945375
0.10541573 0.038880933 0.09289697 0.043453958 0.2509412 0.053073592 0.073332876 0.08145996
0.014927808 0.100223616 0.17965299 0.008107776 0.2290738 0.053042706 0.03359962 0.047779977
0.08762786 0.16417097 0.044808816 0.08067554 0.06362387 0.19140069 0.010274747 0.07802035
0.02476932 0.044351242 0.1570318 0.16503291 0.042461887 0.1392663 0.05103403 0.026611226
0.02679068 0.038475223 0.036301166 0.037924282 0.086561166 0.15707646 0.010979256 0.04988402
0.03853832 0.2801594 0.16046861 0.0859668 0.1165211 0.06962745 0.21163845 0.013359871
0.15221705 0.03348152 0.079179466 0.07986849 0.074746944 0.015943114 0.05626074 0.022646884
0.11100391 0.041661493 0.053029053 0.22253442 0.12176278 0.074594714 0.20849918 0.038789257
0.049483705 0.04577328 0.04740543 0.14739425 0.11229394 0.025355943 0.055971384 0.07791988
0.037566073 0.1418865 0.10530585 0.057236806 0.0150364 0.032752823 0.21296403 0.020838771
0.021615691 0.25727943 0.07713998 0.039201993 0.052219 0.08825368 0.026867444 0.06990192
0.1846808 0.11001281 0.036731202 0.010931333 0.07988014 0.145252 0.051814586 0.16192865
0.10652165 0.07449867 0.019136112 0.10933217 0.11568301 0.047425013 0.05579854 0.028671153
0.13046102 0.04686847 0.07885571 0.1711274 0.08359064 0.07480708 0.04690969 0.08634041
0.008334045 0.020192668 0.2069955 0.05227018 0.09133862 0.08963852 0.10439068 0.004209938
0.033965793 0.09877969 0.048079684 0.047807127 0.15404423 0.0928273 0.060351163 0.09303828
0.098291494 0.0778996 0.02022574 0.090237424 0.08050324 0.17699075 0.124125294 0.10986487
0.057225216 0.13493206 0.034263067 0.020374939 0.056041513 0.06949027 0.06428154 0.09045697
0.118838646 0.16334832 0.14638622 0.10157972 0.065210134 0.174448 0.065408394 0.026888505
0.1468281 0.10212644 0.04012013 0.16053796 0.032093573 0.089692384 0.18680717 0.14613199
0.15858474 0.063760266 0.12002798 0.053346965 0.058776148 0.017106222 0.062270712 0.18312171
0.06406513 0.055291545 0.060126547 0.0883819 0.03685244 0.028998936 0.05287313 0.01057641
0.06776444 0.08434076 0.09730673 0.070564665 0.05663945 0.11237045 0.04516616 0.05367844

layers.4.weight f4 [100, 200]
00000000: 4d62 913d d5d2 4d3d 4352 873c de4d 5abc
00000010: 2b42 343d aebf 87bd 4af4 283d 662b 3cbd
00000020: 8981 b73d 3122 92bc 4a4c b5bd 9ca5 1dbc
00000030: 85b6 c8bd b416 9cbd 9bde 87bc d365 363c
00000040: 45cd 653d 0114 a8bd 2ae2 abbd a868 d13c
00000050: 0032 95bc cc17 993c 0700 96bc ba47 883d
00000060: 83a1 e5bd b6ca 4bbd 31d6 093d 0564 aabd
00000070: 5ecc aabc d3bf debc 00c2 5abd 9370 883d
00000080: 9cf9 933d 8f00 eebc 7fdd bc3c 204b c43d
00000090: 17ad 46bd b72b 00bd bc66 bfbd dd42 593d
000000a0: 05d3 9d3d 39ca 083d a902 9c3c 3630 703d
000000b0: f767 35bc f5fa 2c3c d7e7 babc c335 ca3c
000000c0: 338e 35bb b4f2 c5bc 0424 853d 3f67 1d3d
000000d0: 6243 24bd 84dc 923d bed1 1ebd ff0b 793d
000000e0: d618 d6bc 25bc 033d 1e36 51bc f543 2cbd
000000f0: a2a5 f2bb fc1d d1bc 20d3 72bc 7d57 b1bd
00000100: ed59 56bd 313b 313b c240 9c3d dc72 fbba
00000110: 5760 bdbc 6355 d0bd bdb2 6d3b d4f0 e23c
00000120: afd2 6cbc fe78 bf3d 207f 6b3d e70b aabb
00000130: 6716 63bd cc7f 43bd 83d6 1f3d 4365 0b3c
00000140: 4dcc a03c 05aa 093d ee7c 963d b0fa e2bc
00000150: a317 043d 0e0d 173d 916f 6bbd 750c e1bc
00000160: 66e0 5e3d 4b53 123d e87b 643d 3e04 4f3c
00000170: 836e 83bd 820d 173d b473 94bc 9c34 363d
00000180: e29e 56bd bd80 173d 18c4 283c a15d ac3d
00000190: f9ce 853d 00ea f23c fee4 b73c 6a9d 83bc
000001a0: 9a0c d13d 00d5 20bd 89c3 9bbc 43a3 8ebb
000001b0: 3911 50bd 9f90 cbbc b4cc a63d 380f c73c
000001c0: 52b5 7e3d d32c 56bd 5bd4 f0bd 8781 49bd
000001d0: 60e6 70bd ac05 e33c 4ae7 2fbd 054f 18bd
000001e0: 01ba 83bc dc94 2bbb 75e8 68bc ba9b 65bd
000001f0: 52ec 2f3d 9849 97bd 1077 2f3d 6b46 82bd
00000200: e7e7 283e 5ea8 24bd f6ad 853d 553a d5bc
00000210: df60 abbc 10d9 b1bc d5ee 363d 6c0b 03bd
00000220: 57ef 2e3d f7e7 b03d 563d 84bd 8daa 843c
00000230: 2a1c dcbc 3f4f 833d 56d8 46bd cbba a6bc
00000240: b474 203d 7f78 623d bcb0 b73b 8f35 53bd
00000250: 8d04 bf3c 773d 8c3b 3803 4f3d 1bfa 283c
00000260: b968 64bb cb02 95bb 57e9 00bd 30dc 02be
00000270: 0cad 99bb a223 72bc f597 58bc 89c3 813d
00000280: 367f 1e3d 8043 0dbd e9b1 873d 527e 81bb
00000290: fea0 153d c728 c739 c076 6a3d 904b c83c
000002a0: 3a40 b53b de54 a43b 9a8d 503d 6e04 1cbb
000002b0: 862d 08bd 9636 e5ba 2274 a4bc d1a2 cbbd
000002c0: 9717 493d ebde 93bc c42a 53be 7b39 233d
000002d0: 34e7 883d b976 5bbd 1b72 b33d aa89 133c
000002e0: 6355 463c e36e 353d ba10 a03c 00af 83bc
000002f0: 3d43 92bd 17af ab3d 6990 043d 9368 05bd
00000300: 1ae7 173c bdca 853d f05f 1f3d c1a1 adbc
00000310: e058 8e3c 1e58 b23b 9ce0 cf3d f127 fa3c
00000320: 889f 243d 5fa8 3ebc 430c e4bc a56e 203d
00000330: 07fc a8bd e448 be3c 642d 673b 318e 6d3c
00000340: 1bf1 353d 2068 1dbd 4eec b8bd c3b2 b1bd
00000350: 047b d5bd ddbb 62bd 34c8 89bc 1634 b03b
00000360: 9fbe b03c 7bb3 c73b 906a 473c e031 e13c
00000370: 23fc 2fbd 685f 7f3c 2d70 ce3c fd4c 6a3d
00000380: 1e82 0cbe 9d1a fd3c 8b46 473b f5b0 c83c
00000390: 2684 043d a4fc 193d 79c5 b3bd 4d05 d53d
000003a0: 7898 f63d 1e65 453d a912 17bd 577f 21bd
000003b0: 92d1 b5bc b6c4 7cbd 1574 01bd 582a 3a3d
000003c0: 0989 813d 6a5b 613c 4a09 0c3d bd91 df3c
000003d0: 0e71 f93c 8119 753b 2f0f 2c3c 3e16 14bb
000003e0: a751 e53b 2ba6 1bbd 0889 43bd 0222 083d
000003f0: f96e ca3b 1f65 b23c 3857 4bbd 9d6b 9d3c
0.070988275 0.050249893 0.016518718 -0.013324229 0.044008415 -0.06628357 0.041248597 -0.045939825
0.08960254 -0.01783857 -0.088524416 -0.009622004 -0.09800438 -0.07621518 -0.016585639 0.011132675
0.056103963 -0.082069404 -0.08392747 0.0255626 -0.018212318 0.018688105 -0.01831056 0.06654306
-0.112124465 -0.049753867 0.033651534 -0.083198585 -0.020849403 -0.027191078 -0.05340767 0.06662097
0.072253436 -0.029053 0.023054836 0.095846415 -0.048504915 -0.03129169 -0.09345767 0.05304228
0.077062644 0.03339598 0.019044237 0.058639728 -0.01107215 0.01055788 -0.022815628 0.024683839
-0.0027703166 -0.024163581 0.0650101 0.03842854 -0.040103324 0.07170966 -0.038774244 0.060802456
-0.02613489 0.03216185 -0.01276925 -0.042056996 -0.007404999 -0.025526993 -0.014820844 -0.08659265
-0.052331854 0.0027043337 0.07629539 -0.0019184011 -0.023117227 -0.10172536 0.0036269866 0.027702726
-0.014454528 0.09349249 0.057494283 -0.005189407 -0.055441286 -0.0477293 0.039022934 0.008508029
0.019628668 0.03360941 0.07348047 -0.027707428 0.032249104 0.036877684 -0.057479445 -0.02747176
0.05441322 0.035723966 0.05578223 0.012635289 -0.06417563 0.036878116 -0.018121578 0.044483766
-0.052397616 0.03698801 0.010300659 0.08416296 0.065336175 0.029652596 0.02244806 -0.016066272
0.10207482 -0.039265633 -0.019014137 -0.0043529584 -0.050797675 -0.024849234 0.08144513 0.024299249
0.06218464 -0.05228884 -0.117592536 -0.049195793 -0.058813453 0.027712665 -0.042945184 -0.037184734
-0.016079905 -0.0026181256 -0.014215578 -0.056056716 0.042949982 -0.07387084 0.042838156 -0.063610874
0.16494714 -0.04019963 0.06527321 -0.026028791 -0.020920215 -0.021709949 0.04466136 -0.031993315
0.04270872 0.08637994 -0.064570114 0.016194606 -0.026868898 0.06411599 -0.048546158 -0.020352742
0.039173797 0.055290695 0.005605785 -0.05156475 0.0233176 0.004279788 0.05054018 0.010313536
-0.0034852459 -0.004547452 -0.03147253 -0.12779307 -0.0046898182 -0.014779003 -0.013219823 0.063361235
0.038695537 -0.0344882 0.066257305 -0.003951826 0.036530487 0.0003798662 0.057242155 0.024450094
0.005531338 0.005015 0.05091629 -0.0023806351 -0.03324654 -0.0017487581 -0.020074908 -0.09943164
0.049094763 -0.018050632 -0.20621783 0.03984974 0.066847235 -0.05358002 0.08761998 0.00900499
0.012105319 0.044295203 0.019539226 -0.016074657 -0.07141731 0.08383005 0.032364283 -0.032570433
0.0092714075 0.0653281 0.038909853 -0.021195294 0.017376363 0.0054426333 0.10150263 0.030536624
0.040191203 -0.0116368225 -0.027837878 0.03916802 -0.082511954 0.023228116 0.0035274858 0.014499233
0.04441939 -0.03842938 -0.090294465 -0.08676674 -0.10423854 -0.05535494 -0.016819097 0.005377303
0.02157527 0.006094394 0.012171403 0.027489603 -0.042965066 0.0155867115 0.025199974 0.057202328
-0.13721511 0.03089648 0.0030407037 0.024498442 0.03235259 0.037594453 -0.08777899 0.10401402
0.120408 0.048192136 -0.03688303 -0.03942808 -0.022194657 -0.061711036 -0.031604845 0.04545054
0.063249655 0.013754705 0.034188546 0.027291173 0.030449416 0.0037399235 0.010501667 -0.0022596265
0.006998259 -0.038000267 -0.047738105 0.033235557 0.0061777798 0.021776734 -0.049643725 0.019216353

layers.4.bias f4 [100]
00000000: 631d be3d 8416 1f3e 84bf d83d c6c1 f33d
00000010: cda1 cd3d 2a84 cd3d 7c08 1b3e e0b8 8a3e
00000020: d365 0c3e 8210 2c3e a65d 453e 1d4c 253e
00000030: 4f9f 283e 1e4c eb3d 0489 3c3e 042a 253e
00000040: f0fc 543e 3ba6 a33c 813d 083e 18ff 143e
00000050: 8a53 fb3d dfce 173e c6de d73d 0830 513e
00000060: 891e 143e edf5 5b3e b7ec 443e 8c6f 313e
00000070: 1d20 d23d f68a 1a3e 467f 1a3e 5cb2 c53d
00000080: c696 2c3e 5105 293e 5a53 4b3e df10 063d
00000090: 4b4f 243e 5c3d 0d3e 0a6f 713e 78f2 4b3d
000000a0: 2691 1c3e c334 233e 999c de3d 41f3 ff3d
000000b0: 2bc6 3dbe e349 253e 99fc 093e 5e1f 083e
000000c0: dcbb 9a3d 9755 8f3d a4f9 793d 87f3 5a3e
000000d0: 7816 143e aee7 2f3e 8a77 213e 7205 e13d
000000e0: be46 363e b6b6 6f3d 0d18 3f3e 8712 e63d
000000f0: 49e6 5e3e 7212 1d3e 975d 3c3e 4114 363e
00000100: 079e ab3d 7484 d13d b44e d23d c452 3a3e
00000110: cdc1 413e 9b7a 0b3e 9205 e83d 06f9 1f3e
00000120: a331 0b3e 2a09 3e3e eb6d 063e b943 7a3e
00000130: 72a7 443e d88c 6a3d 5f9b f73d 539e a03d
00000140: dbd7 8f3d d16c 793e aeaa 053e b289 d53c
00000150: 0364 6e3e 46f3 4f3e 6eff 3a3e 3843 8e3e
00000160: f36d 553e 277b 923d 899f 7b3d 9592 023e
00000170: 186d 3e3c d0d2 023e 7e39 ee3d 1084 1e3e
00000180: 37d8 9d3d 72e3 fd3d 202a 543e 5f99 2c3e
0.09282949 0.15535933 0.10583404 0.11902194 0.10040627 0.10034974 0.15139955 0.27094173
0.13710718 0.16803172 0.19274005 0.16142316 0.16467021 0.114891276 0.18411642 0.16129309
0.20799613 0.019976726 0.13304712 0.14550436 0.12271793 0.14825009 0.105405375 0.20428479
0.14464773 0.21480532 0.19230925 0.17327708 0.10260031 0.15092072 0.15087613 0.0965316
0.1685439 0.16505934 0.19856015 0.032730933 0.16045873 0.13792938 0.23577514 0.049791783
0.15289745 0.15938096 0.108697124 0.12497569 -0.18532626 0.16141467 0.13475265 0.13293216
0.075553626 0.06998747 0.06102909 0.21381961 0.14461696 0.17178223 0.15768257 0.10987367
0.17800424 0.058523856 0.18661518 0.112340026 0.21767534 0.15339068 0.18395077 0.17781164
0.08379751 0.102303416 0.10268918 0.18195635 0.18921585 0.13620989 0.113291875 0.15622339
0.13593154 0.18558183 0.13127868 0.24439897 0.192045 0.057263225 0.120901816 0.07842698
0.07023593 0.24357916 0.1305339 0.026066635 0.23280339 0.20307645 0.18261501 0.2778566
0.20842724 0.07152396 0.06143144 0.12751229 0.01162269 0.12775731 0.116320595 0.15480065
0.07707255 0.123968974 0.20719194 0.16855381

layers.6.weight f4 [100]
00000000: 9264 6d3f edbb 5a3f 1b83 1e3e 7c2a 383f
00000010: 8d7b 493f a771 133f a511 013f 4da8 053f
00000020: ef1b 663f cfa8 653f 2e3d fb3e becf 153f
00000030: abf8 ae3d 6572 3e3f 8134 b03e 4008 b53e
00000040: fcf0 9f3e b14a 4b3f 6a8b b93d 65de 143e
00000050: a37b 323e 7a61 d53e 4648 003f 848d 163e
00000060: 11b3 673f 0617 723f 7e56 8c3e e516 1d3f
00000070: 1496 243f 0b5f 853e 1eca ae3e 9bb4 163f
00000080: eb5c 313f 32e4 b33e 2c18 e23e 70d9 6c3f
00000090: 7b64 8c3e ae53 153f 0984 a43e 7dcd 713f
000000a0: 5d8d e13e 6f26 773f 9841 ef3d 0230 4c3f
000000b0: 70dc 073f 23a8 443f c268 6b3f 0164 343f
000000c0: 4303 5a3e d8fb 2d3e 18d5 e73d 3141 493e
000000d0: d89c 5a3e 5152 823e 7435 873e 6b1a dc3e
000000e0: 94f9 fb3e d733 ab3e 5fbc 393f ecfe d33e
000000f0: 513a 063f 7387 8b3e 3030 0d3e b40d 5b3f
00000100: f419 7d3e 4e29 043f 72b4 703e 5a6e 113f
00000110: d819 373e d31a d53e 7a11 1d3f b4e0 0f3e
00000120: ccf3 563f 30a3 333f ad35 4b3f ddfb 8e3e
00000130: 60ef 063f 86db 583f 1f87 bd3d 3dd6 353e
00000140: d3bb 883e b491 083f fe60 593f e8cc d53e
00000150: 6a60 8a3e 0969 8d3e eba9 5d3e 79bb 7a3e
00000160: 51f1 123f 7b5c ef3e 5021 433e 623c 653f
00000170: 7662 6c3f d841 483f 5cbd 073f cff5 6f3f
00000180: b490 b23d 1808 1f3f 2acb f93e 84c1 d43d
0.92731583 0.85443 0.154797 0.71939826 0.7870415 0.57595295 0.5041755 0.5220993
0.89886373 0.89710706 0.49070114 0.58520114 0.085435234 0.743933 0.34415057 0.35357857
0.31238544 0.79410845 0.09059794 0.14537962 0.17429976 0.4167593 0.5011028 0.14702421
0.9050761 0.9456638 0.27409738 0.6136306 0.642915 0.26049075 0.34138578 0.5886933
0.69282407 0.35135037 0.44159067 0.92519283 0.2742041 0.5833081 0.32131985 0.94454175
0.44053164 0.9654302 0.11682433 0.79760754 0.53070736 0.76819056 0.9195672 0.70465094
0.21290307 0.16990602 0.11319941 0.19653775 0.21348894 0.25453427 0.2640797 0.42988905
0.4921385 0.33437988 0.72553056 0.41405427 0.52432734 0.27251777 0.13787913 0.85567784
0.24716932 0.51625526 0.23506334 0.5680901 0.17880952 0.41622028 0.6135479 0.14050561
0.83965755 0.7017088 0.7937878 0.2792653 0.5270901 0.84709966 0.09254288 0.17757507
0.26705799 0.53347325 0.84913623 0.41757894 0.27026683 0.27619198 0.2164685 0.24485578
0.5739947 0.46750244 0.19055676 0.8954526 0.9233774 0.7822547 0.53023314 0.9373445
0.08719006 0.62121725 0.48787814 0.10388473
